…
/usr/local/lib/python3.12/dist-packages/keras/src/layers/convolutional/base_conv.py:113: UserWarning: Do not pass an `input_shape`/`input_dim` argument to a layer. When using Sequential models, prefer using an `Input(shape)` object as the first layer in the model instead.
  super().__init__(activity_regularizer=activity_regularizer, **kwargs)
Model: "sequential_5"
┏━━━━━━━━━━━━━━━━━━━━━━━━━━━━━━━━━┳━━━━━━━━━━━━━━━━━━━━━━━━┳━━━━━━━━━━━━━━━┓
┃ Layer (type)                    ┃ Output Shape           ┃       Param # ┃
┡━━━━━━━━━━━━━━━━━━━━━━━━━━━━━━━━━╇━━━━━━━━━━━━━━━━━━━━━━━━╇━━━━━━━━━━━━━━━┩
│ conv2d_15 (Conv2D)              │ (None, 126, 126, 32)   │           896 │
├─────────────────────────────────┼────────────────────────┼───────────────┤
│ max_pooling2d_15 (MaxPooling2D) │ (None, 63, 63, 32)     │             0 │
├─────────────────────────────────┼────────────────────────┼───────────────┤
│ conv2d_16 (Conv2D)              │ (None, 61, 61, 64)     │        18,496 │
├─────────────────────────────────┼────────────────────────┼───────────────┤
│ max_pooling2d_16 (MaxPooling2D) │ (None, 30, 30, 64)     │             0 │
├─────────────────────────────────┼────────────────────────┼───────────────┤
│ conv2d_17 (Conv2D)              │ (None, 28, 28, 128)    │        73,856 │
├─────────────────────────────────┼────────────────────────┼───────────────┤
│ max_pooling2d_17 (MaxPooling2D) │ (None, 14, 14, 128)    │             0 │
├─────────────────────────────────┼────────────────────────┼───────────────┤
│ flatten_5 (Flatten)             │ (None, 25088)          │             0 │
├─────────────────────────────────┼────────────────────────┼───────────────┤
│ dense_10 (Dense)                │ (None, 128)            │     3,211,392 │
├─────────────────────────────────┼────────────────────────┼───────────────┤
│ dropout_5 (Dropout)             │ (None, 128)            │             0 │
├─────────────────────────────────┼────────────────────────┼───────────────┤
│ dense_11 (Dense)                │ (None, 4)              │           516 │
└─────────────────────────────────┴────────────────────────┴───────────────┘
 Total params: 3,305,156 (12.61 MB)
 Trainable params: 3,305,156 (12.61 MB)
 Non-trainable params: 0 (0.00 B)
Epoch 1/10
12/12 ━━━━━━━━━━━━━━━━━━━━ 16s 1s/step - accuracy: 0.2474 - loss: 1.4702 - val_accuracy: 0.2500 - val_loss: 1.3904
Epoch 2/10
12/12 ━━━━━━━━━━━━━━━━━━━━ 14s 1s/step - accuracy: 0.2318 - loss: 1.3906 - val_accuracy: 0.2500 - val_loss: 1.3860
…
